checkpoint/binarizer_epoch_00000001.pth (torch_old, 66012 bytes, 1 tensors)

conv.weight f4 [32, 512, 1, 1]
000000 52 92 3b bd c1 aa f2 be a7 0d 4d 3e 10 57 b6 bd
       -0.04579384 -0.473959 0.20024739 -0.089033246
000010 08 f8 d2 3e f7 73 b5 bd b1 d1 a1 3d 0e 12 01 3e
       0.41204858 -0.08860009 0.079013236 0.12604544
000020 5d 80 5b be e3 b4 ad be ab 3b 67 3c e0 c9 d7 bd
       -0.21435685 -0.33927068 0.014113347 -0.105365515
000030 d9 9e bc 3d e2 92 fa bd aa ce 25 be 76 22 9f bd
       0.09209985 -0.12235047 -0.16192117 -0.07770245
000040 59 d0 7a bc ad 8a 8e bd 7d 16 4a bd 93 f1 43 bd
       -0.015308463 -0.06960044 -0.049337853 -0.047837805
000050 e9 ca 64 3e 93 5e 9f 3e df 05 67 3d 7d 00 f5 bc
       0.22343029 0.31126842 0.056402083 -0.02990746
000060 5d 18 40 bf e1 8b a1 3c 79 d8 4e 3d 5a 0e c4 3e
       -0.75037175 0.01972002 0.050499413 0.382922
000070 61 06 a5 3e be d0 8c be 3c d0 60 bf d4 9a 07 bd
       0.3223143 -0.27503008 -0.8781774 -0.03310664
000080 a6 aa a6 be 4a 97 a3 bd c8 69 34 bd 01 72 55 be
       -0.3255207 -0.079878405 -0.044046193 -0.2084427
000090 5b cc 8f 3d 5e 9b 4d 3d 1f 0d 0c be 9e 7e 06 bf
       0.070213996 0.050196998 -0.1367688 -0.5253695
0000a0 99 0b 86 be 14 13 50 3d b2 40 a4 3d 54 99 9a 3e
       -0.26180723 0.050799444 0.08020152 0.30195105
0000b0 3a 31 c0 be 4b 56 cb bc b6 df 3e 3d 9f 6a 08 3e
       -0.37537557 -0.024821421 0.046600066 0.13321923
0000c0 2e 85 d3 bf 41 75 16 be 73 97 6b 3e b1 f0 ef be
       -1.6525018 -0.14693166 0.23006992 -0.4686332
0000d0 12 85 c7 3c 67 5d 0c 3e 08 b1 90 be 28 6d cf bd
       0.024355445 0.13707505 -0.28260064 -0.10128242
0000e0 64 32 38 be 98 49 13 3f da f5 c9 3d f3 ca 89 3d
       -0.17987972 0.5753417 0.098613456 0.067281626
0000f0 49 d5 4b 3d 3a 04 bc bd 34 fa 8d 3e 05 81 4d bf
       0.04976395 -0.09180494 0.27729952 -0.80274993
000100 d2 85 22 3f 3d c5 f8 3d 19 7b 2b be 8d 92 1c bd
       0.63485444 0.12146995 -0.16746177 -0.0382257
000110 61 e8 a9 3e e4 c2 31 be 43 6a 04 bf a4 08 16 3d
       0.33185104 -0.17359501 -0.5172464 0.036629334
000120 40 68 46 3e 3e 22 c5 3e 87 aa 42 be 36 6f 06 be
       0.19375706 0.38502687 -0.19010364 -0.13128361
000130 b4 d1 a2 bd b9 61 a5 3d 82 fc 33 bd c6 f2 0c be
       -0.07950154 0.0807528 -0.043941982 -0.13764486
000140 df e6 d7 bb f7 9f 05 bf a3 58 62 be 3a e5 d8 bd
       -0.0065888013 -0.5219721 -0.22104125 -0.105905965
000150 67 26 ad be c4 20 15 be 9a 1a 42 3e b2 38 04 bd
       -0.3381836 -0.1456328 0.1895546 -0.03228063
000160 78 b8 89 be 14 a4 11 bd be 14 0d 3e 97 6d 97 3e
       -0.2689855 -0.035556868 0.13777444 0.29575798
000170 26 4d 1c 3e 82 05 de 3d a1 ec 0a be fd bb 51 3d
       0.15263805 0.10840894 -0.1356683 0.05120467
000180 7f 4f 9b 3e 18 12 ad 3d cc 47 82 3d d0 98 80 bd
       0.30334088 0.08450717 0.063613504 -0.06279147
000190 58 44 d5 bc 11 e6 53 3d 36 c6 43 3e f5 05 23 3e
       -0.026033565 0.05173308 0.1911858 0.15920241
0001a0 af d7 aa bd a4 cb e1 3e ec df a7 bd 1d 14 56 be
       -0.0834192 0.44100678 -0.081970066 -0.2090611
0001b0 3a b6 8f bd 2b 62 13 3e ea 7f 1f be 91 76 21 be
       -0.07017179 0.14392917 -0.15576139 -0.15767886
0001c0 d1 24 17 be d0 3e 0d bd 62 46 a5 3e 75 37 f1 3d
       -0.14760138 -0.03448373 0.3228026 0.11778156
0001d0 5a 0e d0 be 63 6d 36 be 4a e8 0b 3e 5e 59 d1 be
       -0.4063595 -0.17815165 0.1366283 -0.40888494
0001e0 6e 73 13 bf d7 8d 97 3b 00 a5 9e bd fb 6c 1a be
       -0.57598007 0.004625063 -0.07746315 -0.15080635
0001f0 f3 e1 95 bd 98 d8 ad bd 0c 77 c7 bd a8 4d 9b bd
       -0.07318487 -0.084885776 -0.09739503 -0.07583171
000200 33 a1 be bc 63 ed 6f bd c2 68 92 3d 7f a4 ca 3e
       -0.023270225 -0.058576 0.07148887 0.39578626
000210 5a fc 19 3e a6 b3 29 be d2 2f ba 3e ae 85 93 3e
       0.1503767 -0.16572437 0.3636461 0.28812927
000220 5a fc 1c 3d bd b7 77 be c9 79 ce 3e a3 e9 23 be
       0.0383266 -0.24191184 0.4032729 -0.16007094
000230 c6 09 1b be b4 e4 6b 3e 35 28 5b be 58 39 da 3d
       -0.15140447 0.23036462 -0.21402057 0.10655469
000240 a5 66 b7 3e e2 a1 48 be 99 89 47 bd 56 4d 83 bd
       0.358205 -0.19593003 -0.048715208 -0.06411235
000250 a2 3c ca 40 b1 c0 2b bf de ed c9 3d 01 20 e5 bd
       6.3199015 -0.670909 0.09859823 -0.11187745
000260 f4 3c 2c 3f f6 e5 10 3e e6 f5 bb 3e 05 af 88 bf
       0.6728051 0.14150223 0.36711043 -1.0678412
000270 a0 11 42 be 68 7e 44 3f 2a ce e3 bd e9 bc 14 be
       -0.18952036 0.7675538 -0.11123307 -0.14525189
000280 e3 69 d0 bd 62 fc 07 3e c3 fc e4 bd 5b 78 10 be
       -0.10176446 0.1327987 -0.11181023 -0.14108412
000290 f3 d0 94 bd d5 a7 ba bd b6 0d 7a 3d 83 c4 60 3e
       -0.072664164 -0.09114043 0.061048232 0.21949963
0002a0 16 69 37 bd e8 8c b6 bc 07 f7 96 3c 33 67 ae 3e
       -0.044777952 -0.022283986 0.018428339 0.3406311
0002b0 6e 06 02 3e 1d 6a e5 3e 30 8c c5 3e 3f b7 9e 3c
       0.12697765 0.4480752 0.38583517 0.019374488
0002c0 8f c5 d2 3e 09 84 eb 3d 87 63 34 3e 77 b2 88 be
       0.4116635 0.11499793 0.17616092 -0.26698658
0002d0 48 c9 cd 3d 4a 54 13 3e 6b a1 b2 3e d0 46 8b 3b
       0.10048157 0.14387622 0.34888777 0.004250385
0002e0 bb 1c 67 3e c2 41 3b 3e 3e 9f 83 ba 30 7c 7c bd
       0.22569554 0.18286803 -0.0010041965 -0.061641872
0002f0 99 8e 55 bd 26 6f 1f 3d 3e 3e fe 3c 97 2c 40 3e
       -0.052137945 0.03892436 0.031035539 0.1876701
000300 05 f3 dc 3e 7c 90 3d bc 23 d1 30 3e 47 97 49 3e
       0.4315416 -0.011570092 0.1726728 0.19686614
000310 d1 77 d6 be 3e 8d 78 bd ab e5 bc 3e 62 44 51 3e
       -0.41888288 -0.060681574 0.36893973 0.20436242
000320 f6 64 a5 3d 50 1b 00 3e d7 42 90 bd 0f 91 22 3b
       0.080758974 0.12510419 -0.07043999 0.00248057
000330 59 b7 94 be 10 9a ff 3d d1 c7 c7 3e 70 b3 1c be
       -0.29046133 0.12480557 0.39019635 -0.15302825
000340 5e 26 f0 bd ad 26 d2 3e 47 82 1f 3f 45 7e 95 3e
       -0.11726068 0.41045132 0.6230816 0.29197899
000350 fd d5 a7 3e 4c 2e 70 bd 5c bf 23 be bb 98 05 be
       0.32780448 -0.058637902 -0.15990967 -0.13046543
000360 3f ef 54 3d f7 06 1c b9 ee 09 51 be e4 08 1d be
       0.051985975 -0.00014879914 -0.20413944 -0.15335423
000370 77 96 d1 ba d6 bb 8c 3e 46 43 88 3e 12 14 a2 3e
       -0.0015990277 0.27487057 0.26613826 0.31655937
000380 6d c9 72 3e 9f 83 04 bf a6 9e 54 be d1 ba 8e be
       0.2370965 -0.5176334 -0.20763645 -0.27876905
000390 d6 30 30 3e ee 66 7f bd b9 d3 83 bd 95 87 0f 3f
       0.1720613 -0.06235402 -0.06436867 0.56066257
0003a0 43 c0 63 3f 67 b4 01 3e 8b 39 03 3d 66 d6 09 3e
       0.88965243 0.12666474 0.0320373 0.13460693
0003b0 2a 95 91 be e1 48 65 be 5b c8 be bc b8 03 96 bd
       -0.28434116 -0.22391082 -0.023288896 -0.07324928
0003c0 64 13 1d 3e 90 0e 64 bd 47 53 1f 3e 92 d3 5b 3c
       0.15339428 -0.05567795 0.15559112 0.0134171415
0003d0 bc ce c6 3d b0 d4 4a 3e b2 4b 1d bd 8b ba e1 bc
       0.097074 0.19807696 -0.038402267 -0.027554771
0003e0 8b a0 8b 3d 2d ca 08 3d dd 4e 9c be ba 8f d3 3e
       0.068177305 0.033395935 -0.30528918 0.41320592
0003f0 3d d5 d1 bd 5d f5 00 be a3 c4 0e 3e d4 97 4f 3e
       -0.1024575 -0.12593599 0.13942198 0.20272762
